…

Compile the model

Choose an appropirate optimiser and loss function for model training

### Todo, choose an appropirate optimiser and loss function
model.compile(optimizer='adam',
              loss=tf.keras.losses.SparseCategoricalCrossentropy(from_logits=True),
              metrics=['accuracy'])

# View the summary of all layers
model.summary()

Model: "sequential"
_________________________________________________________________
Layer (type)                 Output Shape              Param #   
=================================================================
rescaling (Rescaling)        (None, 180, 180, 3)       0         
_________________________________________________________________
conv2d (Conv2D)              (None, 180, 180, 16)      448       
_________________________________________________________________
max_pooling2d (MaxPooling2D) (None, 90, 90, 16)        0         
_________________________________________________________________
conv2d_1 (Conv2D)            (None, 90, 90, 32)        4640      
_________________________________________________________________
max_pooling2d_1 (MaxPooling2 (None, 45, 45, 32)        0         
_________________________________________________________________
conv2d_2 (Conv2D)            (None, 45, 45, 64)        18496     
_________________________________________________________________
max_pooling2d_2 (MaxPooling2 (None, 22, 22, 64)        0         
_________________________________________________________________
flatten (Flatten)            (None, 30976)             0         
_________________________________________________________________
dense (Dense)                (None, 128)               3965056   
_________________________________________________________________
dense_1 (Dense)              (None, 9)                 1161      
=================================================================
Total params: 3,989,801
Trainable params: 3,989,801
Non-trainable params: 0
_________________________________________________________________

Train the model

epochs = 20
history = model.fit(
  train_ds,
  validation_data=val_ds,
  epochs=epochs
)

Epoch 1/20
69/69 [==============================] - 30s 118ms/step - loss: 1.9477 - accuracy: 0.2844 - val_loss: 1.7011 - val_accuracy: 0.3675
…
  layers.MaxPooling2D(),
  layers.Dropout(0.2),
  layers.Flatten(),
  layers.Dense(128, activation='relu'),
  layers.Dense(num_classes,activation='softmax')
])

Compiling the model

## Your code goes here
model.compile(optimizer='adam',
              loss=tf.keras.losses.SparseCategoricalCrossentropy(from_logits=True),
              metrics=['accuracy'])

model.summary()

Model: "sequential_2"
_________________________________________________________________
Layer (type)                 Output Shape              Param #   
=================================================================
sequential_1 (Sequential)    (None, 180, 180, 3)       0         
_________________________________________________________________
rescaling_1 (Rescaling)      (None, 180, 180, 3)       0         
_________________________________________________________________
conv2d_3 (Conv2D)            (None, 180, 180, 64)      1792      
_________________________________________________________________
dropout (Dropout)            (None, 180, 180, 64)      0         
_________________________________________________________________
max_pooling2d_3 (MaxPooling2 (None, 90, 90, 64)        0         
_________________________________________________________________
conv2d_4 (Conv2D)            (None, 90, 90, 32)        18464     
_________________________________________________________________
max_pooling2d_4 (MaxPooling2 (None, 45, 45, 32)        0         
_________________________________________________________________
conv2d_5 (Conv2D)            (None, 45, 45, 16)        4624      
_________________________________________________________________
max_pooling2d_5 (MaxPooling2 (None, 22, 22, 16)        0         
_________________________________________________________________
dropout_1 (Dropout)          (None, 22, 22, 16)        0         
_________________________________________________________________
flatten_1 (Flatten)          (None, 7744)              0         
_________________________________________________________________
dense_2 (Dense)              (None, 128)               991360    
_________________________________________________________________
dense_3 (Dense)              (None, 9)                 1161      
=================================================================
Total params: 1,017,401
Trainable params: 1,017,401
Non-trainable params: 0
_________________________________________________________________

Training the model

## Your code goes here, note: train your model for 20 epochs
history = model.fit(
  train_ds,
  validation_data=val_ds,
  epochs=epochs
)

Epoch 1/20
69/69 [==============================] - 9s 108ms/step - loss: 1.9998 - accuracy: 0.2758 - val_loss: 1.8577 - val_accuracy: 0.3236
…
